crop_fetch/assets/model.tflite (tflite, 44924 bytes, 6 tensors)

sequential/dense_1/BiasAdd/ReadVariableOp f4 [64]
000000 2e ae 07 ba b9 c1 0c be 41 8e ba 3d 00 00 00 00
       -0.0005175796 -0.13745774 0.09109164 0.0
000010 86 be 0d bd 93 6d 0a bc de 28 63 bc a3 c7 0a 3e
       -0.034605525 -0.008448976 -0.013864724 0.13552718
000020 88 af 86 bd 33 1d 2b bd 99 fe d9 3d cf 91 4c bc
       -0.06576449 -0.041775893 0.10644264 -0.012485935
000030 a8 9d a0 bc 67 b9 51 3d bb 5b 74 bc 00 00 00 00
       -0.019606426 0.051202204 -0.014914448 0.0
000040 e7 fa ff 3d 28 a7 84 bc 38 00 f9 bb df b3 0f 3c
       0.12499028 -0.016192988 -0.007598903 0.008770912
000050 2e dc 15 be 68 f0 86 3d 60 e4 2b 3d da 30 46 bd
       -0.14634773 0.065888226 0.041965842 -0.048386432
000060 b7 ef 01 bd ad e1 a1 bd d8 81 e4 3d 9d 58 dd bd
       -0.03172275 -0.07904372 0.11157578 -0.10807917
000070 0d 10 6c bc de 4d eb 3b 81 97 70 bc 18 a9 5c 3d
       -0.014408124 0.0071809134 -0.014684559 0.053872198
000080 00 00 00 00 50 3a 84 bd 56 d2 b9 bc 00 00 00 00
       0.0 -0.06456435 -0.022683304 0.0
000090 f3 94 a4 bc 07 dd 43 3d d8 6f 8d bc 91 e3 e6 3d
       -0.020090556 0.04781821 -0.017265245 0.112738736
0000a0 00 00 00 00 d4 47 16 3c 93 93 c8 bb fe d5 ff bb
       0.0 0.009172399 -0.006121108 -0.0078074923
0000b0 6c eb 1f bd f7 c4 c4 bb 03 42 27 bc ac d0 fd bb
       -0.039042875 -0.0060049254 -0.0102086095 -0.007745823
0000c0 af ea 46 bc c6 d8 c3 bb af 3c 59 3d 10 e7 1d bc
       -0.012140914 -0.005976769 0.053036388 -0.009637609
0000d0 15 7b 7b bd a9 e2 fb 3d de 7e 3a bc 8a c3 b2 bd
       -0.061396677 0.12299091 -0.011382787 -0.08728702
0000e0 58 5e ad bd e0 c0 36 ba b0 c4 8b bd dc 19 b2 bd
       -0.0846526 -0.00069714896 -0.068246245 -0.086963385
0000f0 9b dd c6 bc 84 c2 4a bd cf 4f 92 3d 3a bf c4 bb
       -0.024275592 -0.04950191 0.071441285 -0.0060042413

sequential/dense_2/BiasAdd/ReadVariableOp f4 [22]
000000 1d 3a 79 bd 69 f2 85 3d 3d 37 86 3d 37 b5 39 3d
       -0.060846437 0.06540377 0.065535046 0.045338836
000010 e4 d2 2b bd 55 8d 1c 3e 9e 40 08 bd 4e 11 cb bd
       -0.041949168 0.15288289 -0.03326475 -0.0991541
000020 42 1a 0b bc 07 e1 1c 3d 34 45 14 bd ca 01 f8 3d
       -0.008490147 0.03830054 -0.03619881 0.12109716
000030 cf 4c 71 3c 0c 5f 9b 3c de 88 d0 bc d6 ae bd 3c
       0.014727785 0.01896622 -0.025455888 0.023154657
000040 23 b5 a3 3c 9c 55 c4 bd e3 ba 2d bc c9 fd a4 bd
       0.019983834 -0.09586641 -0.010603639 -0.08056218
000050 0d 32 3a 3c a5 e2 0a 3d
       0.011364472 0.03390755

sequential/dense/BiasAdd/ReadVariableOp f4 [128]
000000 b8 f8 f3 bd c0 94 9f bc 4b 97 0b 3d 89 71 ef bd
       -0.11912674 -0.01948011 0.03407983 -0.11691577
000010 84 8f d5 3c 64 5a 75 3d ef ec 18 be 9d d8 f9 bb
       0.02606941 0.059900656 -0.14934133 -0.0076246993
000020 00 26 ed bc 38 5c 8e 3d 09 55 04 bc 3f 3a f2 3d
       -0.028948784 0.06951183 -0.008076915 0.11827516
000030 00 00 00 00 d6 3d f3 3c 00 00 00 00 e4 09 84 3e
       0.0 0.029692572 0.0 0.25788796
000040 d8 60 f5 3c ac 6a 6e bd 8f ac c8 bd 57 98 4a bd
       0.029953405 -0.0582072 -0.09798538 -0.04946169
000050 3f 2f 98 bd de e8 ba bc 80 48 6c bc 74 ab 03 b9
       -0.074308865 -0.022816118 -0.014421582 -0.00012557005
000060 0e 46 ba bb 28 a4 57 bc 20 76 04 3e 96 b5 3f 3e
       -0.0056846207 -0.0131616965 0.12935686 0.18721613
000070 cd 40 9b bd 0e c7 0e bd 00 00 00 00 68 97 0c 3c
       -0.07580719 -0.034857802 0.0 0.00858102
000080 02 cc f8 3d 42 75 4c bc 86 6c 85 3d 57 0c 9c bd
       0.121482864 -0.012479128 0.0651484 -0.07619541
000090 ba da aa bb 10 b3 00 bd f4 bf a7 39 f7 b0 70 3c
       -0.0052140625 -0.031420767 0.00031995738 0.014690629
0000a0 92 76 27 3d 78 6a ab bd 0a 4f ef bd 7e b7 02 3d
       0.04088456 -0.08369917 -0.116849974 0.031913273
0000b0 00 00 00 00 69 bd f2 3d 5e 29 27 3d 6e 96 08 3d
       0.0 0.11852533 0.040810935 0.033346586
0000c0 32 8d ef bd 08 ba 4d 3a 32 fb b5 bd a3 c1 34 bd
       -0.11696853 0.000784785 -0.08885802 -0.04412998
0000d0 dc 56 3c bd 74 51 12 3b c3 4c 39 3d 00 00 00 00
       -0.045981273 0.0022326382 0.04523922 0.0
0000e0 00 00 00 00 11 78 9a 3d fb c2 b8 3c 62 3c 47 3c
       0.0 0.07542432 0.022553911 0.0121603925
0000f0 b4 06 b4 ba 68 b1 72 bd 80 fc 43 bc 7a 4c 27 bc
       -0.0013734908 -0.05925122 -0.011962056 -0.0102111045
000100 00 00 00 00 ed 4b 61 3d 6e 7a 0c 3e ef 85 76 bd
       0.0 0.05500405 0.13718578 -0.060186323
000110 24 3d 9d bd bc 12 74 3d 23 61 d4 bd 5f df eb bd
       -0.07677677 0.05958818 -0.1037009 -0.11517214
000120 0d d3 30 3d 77 d9 dd bc 48 f6 3e bd ed a9 d3 3d
       0.043170024 -0.027081234 -0.04662159 0.10335145
000130 8c c4 9f bb 00 00 00 00 83 9f 54 bd 96 d2 96 bc
       -0.004875725 0.0 -0.051909935 -0.018410962
000140 00 00 00 00 0e 69 ae 3d 82 0b 00 3c 00 00 00 00
       0.0 0.08516131 0.007815244 0.0
000150 c4 3a 7f be 58 9a 40 bd 00 00 00 00 6b e3 96 3d
       -0.24924761 -0.047022194 0.0 0.07367595
000160 0c 27 bd 3c 9f 13 30 bd 0f bd 2a bd b0 73 00 be
       0.023089908 -0.042987462 -0.041684207 -0.12544131
000170 76 ab 8f 3b a2 94 1f bd 00 00 00 00 ff c6 67 3d
       0.0043844534 -0.038960107 0.0 0.05658626
000180 51 1b a4 3d eb f7 d0 bc 6f 77 d3 bd e8 e1 b1 bb
       0.08013023 -0.025508841 -0.103255145 -0.0054285415
000190 7a a6 bf bd dd f9 ee bb b5 7f 48 bc 12 cb 16 bd
       -0.09357925 -0.0072929696 -0.012237479 -0.036814757
0001a0 23 8d 8b 3c 00 00 00 00 49 38 45 3e 28 0b d9 3d
       0.017035073 0.0 0.19259752 0.10597831
0001b0 00 00 00 00 00 00 00 00 cc e1 10 bd 73 67 bc bb
       0.0 0.0 -0.035371587 -0.005749637
0001c0 5c e4 00 bd 26 10 40 3d 00 00 00 00 b7 2a 18 3d
       -0.03146778 0.0468904 0.0 0.03715011
0001d0 00 00 00 00 6b 47 ab bd bf 32 53 be 46 5b 3d 3c
       0.0 -0.08363231 -0.20624827 0.011557406
0001e0 fd 36 99 bc 5e 77 1a bc 53 ae bd 3d 9e 83 ef 3b
       -0.018702978 -0.009427873 0.09261765 0.007309391
0001f0 42 4c 59 3d 9a c7 f7 3b f9 54 c1 bd 61 74 92 bb
       0.05305124 0.007561636 -0.094400354 -0.00446944

sequential/dense/MatMul f4 [128, 7]
000000 34 32 44 be 21 7d 32 bd 44 4a 06 bd 24 9c 1b be
       -0.19159776 -0.043576363 -0.03278567 -0.15196282
000010 89 1a 05 3e 3b e5 f7 bd ed fa 18 3e ee ff 20 3e
       0.12998404 -0.12104269 0.1493947 0.1572263
000020 28 cd 1a be 2d 52 72 be c5 ed 3c be 81 94 b5 3d
       -0.15117323 -0.2366416 -0.18450077 0.088662155
000030 5a 4e 34 3e bc 40 29 3d 64 21 8e 3d 7c 7f 36 3e
       0.17608014 0.0413215 0.069399625 0.17822069
000040 5f cb 31 3e 1b 9f 7c 3d 5d f9 96 3a 78 2a 59 3e
       0.17362736 0.061675172 0.0011518408 0.21207607
000050 e3 87 7e bd 03 d4 34 3e 1d e3 f6 bc b1 1d 33 3e
       -0.06214131 0.17659001 -0.030137593 0.17491795
000060 06 b9 8b be 32 e5 20 bd ed 0e 8b bd 92 f2 5c 3e
       -0.272896 -0.039281078 -0.06789956 0.21576908
000070 43 b5 d1 3d 8a 09 12 3e bf 32 d0 bd 91 a6 f3 3d
       0.10239651 0.14261451 -0.10165929 0.118970044
000080 ca a5 8f 3d d7 b8 e7 3d 37 2a b3 bd 86 7c ab 3d
       0.07014044 0.11314552 -0.08748286 0.0837336
000090 6e 1b a9 bd d8 93 44 3e 47 f2 e1 3d 2a e2 22 3a
       -0.08257185 0.19197023 0.11032539 0.00062135106
0000a0 d6 85 05 3e 21 e1 2b 3e ef 94 fc 3b c9 04 28 3e
       0.13039336 0.16785099 0.007708184 0.16408075
0000b0 59 01 0a be 32 d7 1d be de 0a 08 3e f2 9c 31 be
       -0.13477077 -0.15414122 0.13285396 -0.17345026
0000c0 71 93 b6 bc 42 bc 98 3c 06 7f dc bd 6d df 1f 3e
       -0.022287102 0.018644456 -0.10766415 0.15612574
0000d0 96 e2 09 be 2d d3 01 3e b0 e5 86 bd ff 9b 04 be
       -0.13465342 0.12678213 -0.06586778 -0.12950133
0000e0 d0 1c c3 bd 9d 4e a9 bd 9a c3 88 be 2a 5a 47 be
       -0.0952698 -0.082669474 -0.26711732 -0.19467989
0000f0 69 b2 08 3e 13 3c 1d 3d f4 52 72 3d 84 de 2e 3e
       0.13349308 0.03838737 0.05916114 0.1707707
000100 f2 4a 41 be d7 8d fe bd 87 28 13 3e af 0e 0e 3e
       -0.18876246 -0.124293976 0.14370929 0.13872789
000110 88 0f a8 3d cd 86 c5 bd d5 dc 90 3d 28 7a cd 3c
       0.08206087 -0.09644852 0.0707337 0.025082663
000120 ee 0a 3d 3b 6a 04 01 3e 1c cd 5e be 22 48 8b 3d
       0.0028845626 0.1259934 -0.2175793 0.068008676
000130 79 e7 b3 bd 78 43 52 bd e1 3d 15 be 91 85 ce 3b
       -0.08784384 -0.051333874 -0.14574386 0.0063025435
000140 96 d4 ec 3d 34 be 2d 3e 35 a4 bd 3d 90 d9 c0 3c
       0.11563985 0.16967088 0.09259836 0.023541242
000150 e8 62 e1 3c 90 24 9c 3c c8 5e b8 3c 55 78 f9 bd
       0.027512982 0.019060403 0.022506133 -0.12181155
000160 0a 0c f8 bd dd cd 3d 3e ce 94 09 be a3 7f 98 bc
       -0.12111671 0.18535562 -0.1343567 -0.01861555
000170 db 97 30 be ad f6 af 3d 57 9e 2f be 22 69 0e 3e
       -0.17245428 0.085919715 -0.17150246 0.13907292
000180 ac f6 15 3e e2 3a 1d 3e a8 ec c0 3c cc e3 08 be
       0.14644879 0.15354493 0.023550346 -0.13368148
000190 8a 92 e9 3d b4 3a 86 bd 95 5a 1c be 86 b5 a2 3d
       0.11404903 -0.065541655 -0.1526893 0.07944779
0001a0 30 24 00 bc ed 6e b2 bd ea fe 0d 3e 29 c5 0d 3d
       -0.007821128 -0.08712564 0.13866773 0.034611855
0001b0 5a 32 98 3e 22 41 14 be 43 87 ca 3e 2c 40 1d bd
       0.29725915 -0.14477971 0.39556322 -0.038391277
0001c0 dd a3 95 3d a8 a1 d9 bd 25 80 48 be a5 e0 1e 3d
       0.07306645 -0.106265366 -0.19580133 0.038788456
0001d0 4d 2b e3 3d 37 99 29 be 2b e9 2c ba 49 e3 35 be
       0.11092243 -0.16562353 -0.0006596024 -0.17762484
0001e0 bd e7 25 3e 63 fe 1c be cd ba 3e 3e 19 01 12 be
       0.16201682 -0.15331416 0.18625946 -0.14258231
0001f0 70 61 63 be 4d 9a 43 3e f1 91 5d 3e 93 b2 ac bd
       -0.22205138 0.1910183 0.21637703 -0.08432498
000200 56 52 a5 3d ae 6c 26 be bb 6d df 3d 90 ae 5d 3d
       0.08072345 -0.16252396 0.10909601 0.054121554
000210 9a 19 53 be 16 d0 4b 3d 92 3f 41 ba 57 18 18 3e
       -0.20615235 0.049758993 -0.00073718384 0.14853035
000220 6c 42 3e bd 78 74 05 3e c5 95 f1 3d b5 e2 06 be
       -0.046450064 0.1303271 0.117961444 -0.1317242
000230 85 f4 95 bd 64 e3 24 bd 43 e3 11 be e1 03 54 bd
       -0.07322029 -0.04025592 -0.1424685 -0.05176151
000240 6d 30 44 3e 25 8f 9f bd 9a 15 40 3d 01 ae cc bc
       0.19159098 -0.077909745 0.0468956 -0.024985315
000250 b4 f4 db bd 34 d1 b8 3d 99 2e db 3d 7f d5 d0 bd
       -0.10740033 0.09024277 0.10702247 -0.10196971
000260 fe 6c 1f be 62 d8 cd 3d 40 88 ab 3d 73 5d 35 be
       -0.15568921 0.10051037 0.08375597 -0.1771143
000270 d9 98 d3 bd 84 96 57 3a 8b 21 39 3e b4 43 43 3e
       -0.10331888 0.00082240277 0.18079202 0.19068795
000280 73 5e 8d 3d 87 56 82 bd e1 85 86 bc 6f da 12 3d
       0.069027804 -0.0636416 -0.01642126 0.035852846
000290 12 a3 3e 3e 39 07 74 3d 4b ac 75 3e 6b 9a d7 3d
       0.18616894 0.0595772 0.23991506 0.105275
0002a0 8c 1e 09 bd 20 39 42 be 08 c5 97 3d 2d cf a3 bd
       -0.033476397 -0.18967104 0.074106276 -0.079985
0002b0 46 06 d9 3c ee 49 ac 3d ca bb 8c bd f9 7e 51 3d
       0.02649225 0.084125385 -0.068717554 0.05114648
0002c0 90 3c 26 3d ad 2a 58 be e2 8a 97 bb 1e 21 3a be
       0.0405851 -0.2111003 -0.0046247104 -0.18176696
0002d0 0b 53 3a be 9e 27 f2 3d f9 f5 f0 3d a3 82 d3 3d
       -0.18195741 0.11823963 0.117656656 0.10327651
0002e0 7f 14 3f 3e a6 4f 8c 3e 3b a1 29 be d8 ab b1 3d
       0.18660162 0.27404517 -0.16565411 0.08675355
0002f0 e4 25 41 be 9b f5 28 be 16 83 eb 3d 63 67 b3 bd
       -0.1886211 -0.16499941 0.11499612 -0.08759954
000300 c0 59 b6 3e 13 e4 1f bd 5f 5e 13 3e 57 f0 14 3d
       0.3561535 -0.039035868 0.14391468 0.03636202
000310 18 90 fc 3d 00 7e 24 3e f5 9e 65 3e 1e f1 9c bd
       0.12332171 0.1606369 0.22423919 -0.07663177
000320 46 e3 d5 3d f4 1e 76 be 1a c9 28 be 6a ef 92 be
       0.104437396 -0.24035245 -0.16482964 -0.28698283
000330 9b cb bf 3d 63 ed 1f bd 36 46 2c 3d 5a 6a 00 3e
       0.093650065 -0.03904475 0.042059146 0.1254057
000340 98 6c 68 bc 13 eb 8f bd d3 38 dc bd a3 31 eb bd
       -0.014186047 -0.07027259 -0.10753026 -0.11484077
000350 f4 4a 7a 3d 2c e6 34 be fe bf 14 be b8 34 d0 bc
       0.061106637 -0.17665929 -0.14526364 -0.025415763
000360 9c c4 4b bd f9 f7 bf bc 2e 47 0a 3e 44 77 43 bd
       -0.04974805 -0.023433672 0.13503715 -0.047721162
000370 4e e4 66 be cc 49 65 3e dc 95 10 3e 99 40 62 be
       -0.22548029 0.22391433 0.14119667 -0.22094955
000380 33 1a 14 3e 3b 8b 94 bc 7f df de bd cc 11 22 be
       0.14463119 -0.018132797 -0.10882472 -0.15827101
000390 83 c8 1e 3e 48 ba b8 3e 6d 5c 1c 3e 1f 4b 1a be
       0.15506177 0.3607962 0.15269633 -0.15067719
0003a0 8e 80 03 be 11 cc c6 3d 77 4d c0 bd 15 d6 7d bd
       -0.12842008 0.09706891 -0.09389775 -0.061971743
0003b0 03 03 8b 3d f6 9c ef 3c fe 6e 1f 3e 88 ad 24 bd
       0.06787684 0.02924965 0.15569684 -0.040204555
0003c0 d2 d8 4d 3e 2c ce ec 3d 76 c0 0e be bc 12 90 bd
       0.20102242 0.11562762 -0.13940606 -0.07034823
0003d0 25 68 84 3d b5 f1 66 bd b6 42 40 3e 62 14 43 be
       0.064651765 -0.056382854 0.18775448 -0.19050744
0003e0 35 47 bb 3d a8 2d 09 be 87 34 8d be c0 21 63 3d
       0.09144441 -0.13396323 -0.27579138 0.05545211
0003f0 9d b6 81 3c 01 26 c4 bd a2 a5 5d 3c 7b db f3 3d
       0.015834147 -0.09577561 0.0135282595 0.11907097

sequential/dense_1/MatMul f4 [64, 128]
000000 08 dc bf bd 97 59 bd bd 7e 82 0f 3e 43 0e 24 be
       -0.093681395 -0.092456035 0.14014623 -0.16021065
000010 03 68 19 3d 57 97 52 3d c6 3f 0c be ee 6d 69 bd
       0.03745271 0.05141386 -0.13696203 -0.056989603
000020 c0 27 99 bc 9d d2 63 3d 07 d8 40 bd 96 13 e7 bd
       -0.018695712 0.05562078 -0.04708102 -0.112830326
000030 3f d6 cb bd 29 17 a9 3d f5 3e 25 3e de 87 b6 3d
       -0.099529736 0.082563706 0.16137297 0.08912633
000040 6f 85 ba bd 9a e7 14 be 2f 13 14 3d 1b 88 c7 3d
       -0.09107482 -0.14541474 0.036151107 0.09742757
000050 51 a7 2b be 7f 28 23 be e0 22 79 bd 9b 5f 03 be
       -0.16763045 -0.15933417 -0.060824275 -0.1282944
000060 54 eb f5 bd f0 a2 83 3d 74 4e 16 3e 51 b0 73 bd
       -0.12007776 0.06427562 0.14678365 -0.05949432
000070 25 28 42 3d ee 52 42 3d 4e 92 c6 bd 45 a2 df 3e
       0.047401566 0.04744237 -0.09695874 0.4367849
000080 29 ea 4a be 0b 36 38 3e 03 0e 23 3e a5 67 2c 3e
       -0.19815888 0.17989366 0.15923314 0.16836412
000090 b6 1c 91 3d a0 c2 3b 3d d4 9f 93 3d 4c ce e8 3d
       0.07085554 0.045839906 0.07208219 0.11367473
0000a0 27 d1 b4 bd 1b ff 19 bc 0a 72 45 3d 63 78 bd 3d
       -0.08828955 -0.009399201 0.04820446 0.092514776
0000b0 ba 14 a4 bd bc e4 5a 3d ce 95 bc bd d7 02 97 bd
       -0.08011766 0.053440794 -0.092082605 -0.073735885
0000c0 e0 19 f8 3d 06 74 93 bd 84 b9 19 be 26 94 1d be
       0.1211431 -0.07199864 -0.15012175 -0.15388545
0000d0 34 f2 3e be b2 5f cf 3d 71 d1 37 be 49 05 12 3e
       -0.1864708 0.10125674 -0.1795099 0.14259829
0000e0 58 23 84 3d 57 fa b9 3d e1 22 fc bd 19 81 6f 3e
       0.06452054 0.09080952 -0.1231134 0.2338909
0000f0 0d 0a 71 3d 43 f8 1e be df af 0f be 0b b3 8e bc
       0.058847476 -0.15524392 -0.14031933 -0.017419359
000100 9c 34 3e 3d 5c b3 af 3d ea 25 da 3d 78 7f 3e be
       0.04643689 0.08579132 0.10651763 -0.18603313
000110 e0 7d 14 be 13 19 ac 3d 59 19 00 3e 20 f8 1e 3e
       -0.14501143 0.0840322 0.1250967 0.1552434
000120 21 cb 66 bd 7f 2d 5d bd 2c b6 06 3e 57 1f b3 bd
       -0.056346063 -0.053998467 0.1315543 -0.08746212
000130 f7 5c 22 3e c0 13 c4 3c 95 e2 80 bc 45 39 08 3e
       0.15855776 0.023935199 -0.015733043 0.13303097
000140 60 bd a9 3c 0a ca d3 3d 39 3f 10 be c8 f6 6c bd
       0.020720184 0.1034127 -0.14086618 -0.057852536
000150 f4 34 75 3d 28 9f 6c 3d 7e 12 ad bd 03 36 8b bd
       0.059864953 0.05776897 -0.08450793 -0.06797411
000160 95 02 12 3e da be 94 3d 07 91 1c 3e 34 23 7c bd
       0.14258797 0.072629645 0.15289699 -0.06155701
000170 5a 9b 8e 3e 37 b1 13 3d c8 c2 b0 bc 99 31 61 be
       0.278529 0.036057677 -0.021577254 -0.21991576
000180 48 ed 04 3d 0c 1b 24 be da be 71 be 46 7b 75 3d
       0.03245285 -0.16025943 -0.2360796 0.059932016
000190 c8 f4 34 bd 9a ed d4 3d 24 23 12 be 90 7b 5f 3d
       -0.044178754 0.103968814 -0.14271218 0.054561198
0001a0 3f c6 7f bd c8 aa 3e bd e0 69 7f 3d 88 35 a0 bd
       -0.06244492 -0.04654959 0.06235683 -0.0782271
0001b0 ca 82 d3 3d 70 43 32 3d e8 f0 82 3d 88 79 2a be
       0.103276804 0.043521345 0.063936055 -0.16647923
0001c0 44 24 e4 3d e9 06 2a be 80 72 c2 3b eb 7b 72 3c
       0.111397296 -0.16604199 0.0059340596 0.014800052
0001d0 00 b1 13 bb a9 e7 7d 3d c8 08 56 bd 86 bb 0f 3e
       -0.002253592 0.061988506 -0.05225447 0.14036378
0001e0 9a b6 12 3c 72 55 1c bd c4 db ae bd 0e f3 d2 3d
       0.008954668 -0.038167424 -0.08538011 0.10300265
0001f0 7b 9a d5 bb 57 1f 69 3e e8 e0 a8 bd 0c 36 ac bd
       -0.0065186596 0.22765861 -0.082460225 -0.08408746
000200 c1 9c ba 3d 33 4f 1c be 37 97 d6 3c cf 30 79 bc
       0.0911193 -0.15264587 0.026195152 -0.015209391
000210 73 8e 0c be 08 54 be 3d b4 fd 26 bd 86 09 03 be
       -0.13726215 0.092933714 -0.040769294 -0.12796602
000220 b4 e8 00 bd 2a a2 d5 3d fb 99 bb 3d ae 4f 0e 3c
       -0.031471923 0.10431321 0.09160229 0.008685989
000230 8a 63 bf bd 22 21 c9 bd 8b 54 0b 3e ec a2 90 be
       -0.093451574 -0.09820773 0.1360647 -0.282493
000240 ac 93 29 bd 11 35 10 be da f3 09 be 73 83 73 bc
       -0.041400596 -0.14082743 -0.13471928 -0.014862883
000250 1e 5b 35 bc 88 86 f7 3d 16 bf 34 bd e4 fb f2 bc
       -0.011069087 0.12086207 -0.044127546 -0.029661126
000260 e2 d8 b9 bd 24 23 4d 3c 77 94 0c bc d5 40 fb 3b
       -0.0907457 0.012520585 -0.008580319 0.0076676407
000270 f7 3d ac 3c 3f 1d 29 be 1e 89 0c be bc b9 90 3e
       0.02102564 -0.16515063 -0.13724181 0.28266704
000280 c0 53 25 be ce c1 20 3c 18 66 30 bd e5 1e 91 3d
       -0.1614523 0.009811832 -0.043066114 0.07085971
000290 75 7f 13 be 9b 10 d1 3c 49 e7 94 3d fa 92 ea 3d
       -0.1440409 0.025520613 0.07270677 0.11453815
0002a0 ff 4e 93 bd df db 00 bb 73 da c8 bd 43 0e c5 bd
       -0.07192802 -0.0019662303 -0.09807291 -0.09621861
0002b0 22 a0 d8 3d e3 90 1a be f4 05 bf bd ef 01 78 bd
       0.10577418 -0.15094332 -0.09327307 -0.06054872
0002c0 b3 bb 07 3a 8e fc 07 3d 77 fb 25 3e d1 b4 13 3e
       0.00051778107 0.03319984 0.16209207 0.14424445
0002d0 05 08 59 3d b5 d6 24 be 26 20 23 3e 2e 9f 8d 3d
       0.052986164 -0.16097529 0.15930232 0.06915127
0002e0 90 70 a7 3c fc 38 8c 3c 27 48 d3 bd 00 0e d7 bd
       0.020439416 0.017117016 -0.10316496 -0.10500717
0002f0 fc c1 ea 3d 3d f5 b4 3d 83 44 db 3d d9 a5 09 3e
       0.11462781 0.08835838 0.10706427 0.13442172
000300 58 d5 89 3c bf b3 a2 3d 50 4d 81 bd d3 ca 21 3e
       0.016825363 0.0794444 -0.06313574 0.15800028
000310 79 67 02 be 19 63 17 bd 8a 89 96 bd c8 a1 31 3e
       -0.12734784 -0.03695974 -0.07350452 0.17346871
000320 44 e1 dc bd 6b c7 08 bd c3 da d0 3d f7 26 0e be
       -0.107851535 -0.033393305 0.101979755 -0.13882051
000330 95 83 13 be f0 d6 87 3d 19 26 85 be 3b 06 cb 3d
       -0.14405663 0.06632793 -0.2600563 0.09913298
000340 d4 86 80 3d 9b 59 8a bd b5 50 35 3e 50 70 e0 bd
       0.062757164 -0.06755372 0.17706569 -0.10958922
000350 e5 2d 45 3e 10 d8 f1 bd 17 c7 14 be 40 09 b6 bd
       0.19255789 -0.11808789 -0.14529072 -0.08888483
000360 fb d8 38 3e 0c 36 f0 3c 59 4f 5a 3d 73 fd eb 3d
       0.18051521 0.029322647 0.053298328 0.11522951
000370 33 b5 11 3c d4 f5 a5 3d 83 3f 13 3e e7 2e e1 3c
       0.008893299 0.081035286 0.14379697 0.027488185
000380 b0 4a ce bd db 0c d7 bd 5b bf 93 bd 73 66 06 3e
       -0.10072839 -0.10500499 -0.072142325 0.13125019
000390 99 41 20 3e 80 26 1e 3e 9f 19 05 3e 91 7c f8 bc
       0.15650024 0.15444374 0.12998055 -0.030332835
0003a0 43 63 a2 3d 7f c5 24 3e 1c 27 ba bd 24 3d 03 bd
       0.07929089 0.16090964 -0.09089491 -0.03204073
0003b0 6c ee 44 bd 20 84 3c 3d 3b f7 4c 3e 65 90 3c 3e
       -0.04807894 0.04602444 0.20016186 0.18414457
0003c0 7b 6a 12 be d8 29 1f bd 28 c5 85 3d bc 85 66 3c
       -0.14298432 -0.038858265 0.06531745 0.014069971
0003d0 af e4 0f be bf 37 82 bc df 43 ce 3d d5 77 06 bb
       -0.1405208 -0.015895722 0.10071539 -0.0020518203
0003e0 5c 76 35 3d 08 7b 8b bd 02 2b 1e 3d fd 3b 33 be
       0.04430233 -0.06810576 0.038615234 -0.17503352
0003f0 02 b2 64 be c1 d8 2b 3e c2 02 0c 3e 50 66 04 be
       -0.2233353 0.16781904 0.13672927 -0.12929654

sequential/dense_2/MatMul f4 [22, 64]
000000 ae 6f 83 3d 6a 01 8d 3d 0b 19 c1 3d e6 78 49 3e
       0.064177856 0.06885035 0.09428605 0.19675025
000010 8a 28 1c bd 88 a1 83 bd 9f 72 94 bc 36 d5 03 3e
       -0.0381246 -0.06427294 -0.018121062 0.12874302
000020 79 74 ec 3d ba 2f 4e 3e c3 d7 04 be 7a c7 4c be
       0.11545653 0.20135394 -0.12972932 -0.1999797
000030 cf 58 c0 3d 16 02 e3 bd 36 fb 4d 3e a0 17 09 bc
       0.09391939 -0.11084382 0.2011536 -0.008367449
000040 97 3c c6 3c c5 ea 03 be 37 7a 44 be 73 a5 60 bd
       0.024198813 -0.12882526 -0.19187246 -0.054845285
000050 d4 78 f2 3d 5a 3d 05 3e 33 24 95 bc c1 98 1c 3e
       0.118394524 0.13011685 -0.018205738 0.15292646
000060 87 39 73 bd 53 73 69 bd 12 f1 eb bd 07 df 78 be
       -0.059381034 -0.056994747 -0.1152059 -0.24303828
000070 aa 39 42 3d 25 b6 05 3e 05 16 62 be b7 d8 80 be
       0.047418274 0.13057764 -0.22078712 -0.2516534
000080 e8 92 7b 3d e7 47 c8 3d cf 2f 05 bc 92 f5 85 bd
       0.061419398 0.09779339 -0.008129074 -0.065409794
000090 35 cc 12 3c fb fa ef bc fe 3a 3c 3e 04 8b 5e 3e
       0.00895982 -0.029294482 0.18381879 0.21732718
0000a0 f8 4c 0c 3d e1 83 dd be 52 2b 89 be c0 57 be bb
       0.03425309 -0.43264678 -0.26790863 -0.0058088005
0000b0 8a fb 31 be 4f 23 0c be 30 40 7f bc 9f 7d 7b bd
       -0.17381111 -0.13685344 -0.015579268 -0.0613991
0000c0 ac 5e 32 bd e7 10 a9 3d 98 d6 23 be 9d 07 bb bd
       -0.043547317 0.08255177 -0.1599983 -0.091323115
0000d0 2d c3 93 3d 27 41 b8 bb a2 2d 20 be 1a 4d d2 3d
       0.07214961 -0.005623001 -0.15642408 0.10268612
0000e0 17 48 ed bd 84 ff d8 3d 4b e7 3e 3d 4f 0b 6d bd
       -0.11586016 0.10595611 0.046607297 -0.057872113
0000f0 ca da 47 be 21 16 51 3e 79 55 49 be f2 a6 40 3e
       -0.19517055 0.20418598 -0.19661511 0.18813685
000100 02 b5 0c 3d f0 8b 84 be ae 99 f1 3d 90 98 c7 3c
       0.03435231 -0.25888014 0.1179689 0.02436474
000110 ca f1 bf 3d 3c a0 6c 3e fd c5 4e 3e a6 aa 8e 3b
       0.093722895 0.23108 0.20192714 0.004353839
000120 15 cf 60 be 47 64 87 bd 82 c0 4f 3e 3c 82 6c bd
       -0.21953996 -0.06610923 0.2028828 -0.05774139
000130 7f d3 cd 3d 40 bc 69 be bc 30 8b be 46 5c 0b be
       0.10050105 -0.22825718 -0.2718562 -0.13609418
000140 b7 9e 53 3e 2f 73 52 3e cd bd 6d 3e c5 eb fb bc
       0.20666014 0.20551752 0.23216935 -0.030752072
000150 9c 72 94 3c bc 57 4a 3e 38 16 b0 3d 05 0d cb 3c
       0.018121056 0.1976003 0.08597988 0.024786482
000160 aa df c0 bd fe 89 81 3d c0 a0 5f be e2 ff 83 be
       -0.094176605 0.06325148 -0.21838665 -0.2578116
000170 36 2c 32 3e 6e e7 56 3c b7 d9 20 be 43 b5 5e 3e
       0.17399678 0.013116701 -0.15708052 0.21748833
000180 f0 d6 85 bd 52 82 18 be 04 ac f6 3d e8 c3 39 3e
       -0.06535137 -0.14893463 0.12044528 0.18141139
000190 f8 6f ab 3c 86 af 83 3e 06 29 76 bd b6 a1 12 3d
       0.020927414 0.2571985 -0.060097717 0.03579875
0001a0 c0 5a 37 3e ca 3e a1 3d 9f a7 f9 bd 48 06 18 3e
       0.17905712 0.07873304 -0.12190174 0.14846146
0001b0 6a e2 9a bd 38 6b 15 3e 80 5b 2b bd 24 15 b5 3d
       -0.07562716 0.14591682 -0.041835308 0.08841923
0001c0 7d 92 a9 3d 4e ea 73 3e ca 44 12 3e 8b 20 03 3e
       0.082798935 0.23819849 0.14284053 0.12805383
0001d0 0c e8 1d be 70 ff 61 3e 5d 57 32 3b 52 da d8 bd
       -0.1542055 0.22070098 0.0027212717 -0.10588516
0001e0 02 02 83 3d cc 73 ca 3d 6f 59 1b bd 33 fe 3e 3e
       0.06396867 0.09885368 -0.037927087 0.18651657
0001f0 01 ff bc be 9e a1 eb bd dd a1 00 bb 0d 39 13 3e
       -0.36913303 -0.115054354 -0.0019627728 0.14377232
000200 51 cf e1 3d e3 cc a6 bd 90 25 2a 3e 8c e3 3a be
       0.110258706 -0.08144548 0.16615891 -0.18250865
000210 b3 3a 9a 3d 3a b8 e1 3d 8e 8f 1e be 82 a6 37 be
       0.07530727 0.110214666 -0.1548445 -0.17934611
000220 f3 18 53 bd 31 0e bb bd 4f ea 74 bd 78 d4 2b be
       -0.051537465 -0.09133566 -0.059793767 -0.16780269
000230 ed 5c 51 bd 2d 34 76 3c be f3 ab 3d 52 bb 7d be
       -0.05111401 0.015027088 0.083960995 -0.24778488
000240 ef bd 19 be c5 6f 57 3e bf b1 c3 3d 41 9d 9b 3e
       -0.1501386 0.2103873 0.09555387 0.30393413
000250 db cb a3 bd a8 f7 9e 3e e1 84 0c 3d 9f 5b 19 be
       -0.07997867 0.31048322 0.03430641 -0.14976357
000260 92 c4 2d bd 1b c1 78 be b1 a6 9b 3d f9 fc c3 3d
       -0.042423792 -0.24292414 0.07600153 0.09569735
000270 e0 a2 a9 3d 1e 1e 7b 3d 1c 7f b0 3d 12 b6 4c be
       0.08283019 0.06130802 0.08617994 -0.1999133
000280 60 47 d0 3c 3b 76 3a 3e 95 12 5b be 30 66 69 3e
       0.02542466 0.18209164 -0.21393807 0.22792888
000290 86 8c 43 3e 0d 32 d3 be 4e 70 c1 3d 0b bf fb bd
       0.19096574 -0.41249123 0.094452485 -0.12292298
0002a0 c0 11 56 bc 87 d6 b8 bd c8 1f 06 3e 04 06 54 bd
       -0.013065755 -0.09025293 0.13098061 -0.05176355
0002b0 db 7a 19 bd 28 45 0a 3d 08 1e a5 bd 77 cf 27 be
       -0.03747068 0.03375736 -0.08062369 -0.16387735
0002c0 72 99 82 be 7f 86 0c 3e 7c a9 e4 bc 38 72 03 be
       -0.25507694 0.13723181 -0.027912848 -0.1283654
0002d0 84 61 98 3d f5 19 ed bb 80 7c 7e bd 16 ac 81 be
       0.07440475 -0.0072357603 -0.06213045 -0.25326604
0002e0 fb bd 5b be 10 84 65 be 7a ef 9c 3c a7 2a 6b be
       -0.2145919 -0.22413659 0.01915716 -0.2296549
0002f0 82 0a ba bd 47 23 bb 3d 54 a3 e1 3d 12 25 fb bd
       -0.090840355 0.09137588 0.110174805 -0.1226293
000300 72 63 ef 3d 34 40 b0 3a c3 9e 7d 3e be 1e 15 be
       0.116888896 0.0013446868 0.24767594 -0.14562508
000310 dd 2c cb bd 75 ec 23 be dd 4f 6c be 43 8f c9 3d
       -0.09920666 -0.1600817 -0.2307734 0.09841778
000320 63 33 68 be 63 45 df 3d 80 26 68 bc 39 9f e7 3d
       -0.22675852 0.10901906 -0.014169335 0.11309666
000330 28 1e 68 3e 7c 26 2b 3e fd 29 b6 3d 3a 3b 2b 3e
       0.22667754 0.167139 0.088947274 0.16721812
000340 7c 74 1b be 7b 04 40 be 75 86 f2 bd aa ba d2 3d
       -0.15181154 -0.18751709 -0.11842052 0.102895096
000350 e1 12 9a bd 98 b4 89 3e a5 9d 6f bd 07 be 3b be
       -0.07523132 0.26895595 -0.05849995 -0.18334208
000360 d0 e4 4c be 18 9d 39 3e f5 f9 96 3e 09 be 85 3c
       -0.2000916 0.18126333 0.29487577 0.016325967
000370 32 ba f6 3d 46 63 a1 3d 87 bb 00 bd 33 9b 7a bd
       0.12047233 0.07880263 -0.03142884 -0.061183166
000380 18 71 62 3e 3d ef 57 be 25 d9 cd bd 52 1c 7a 3e
       0.22113454 -0.21087356 -0.10051183 0.24424866
000390 ce a2 6f be dd 76 64 bd 83 15 f6 3d 85 fb 04 be
       -0.23401949 -0.05577742 0.12015822 -0.12986572
0003a0 78 69 50 3d c8 4b b5 3d b2 cd 5a be 6a 9a a1 3d
       0.050881833 0.08852345 -0.21367529 0.0789078
0003b0 64 b5 2d 3e 40 9c c0 3b c0 c1 22 3e 31 0c 3e bd
       0.16963726 0.0058780015 0.15894222 -0.046398345
0003c0 26 5b 28 bd 00 3c a9 bc 49 b4 9d be 85 d7 ba 3c
       -0.04110255 -0.020658493 -0.3080161 0.022807846
0003d0 4b ae 6c be 93 00 47 be ce 37 2d 3d 51 6c 92 bd
       -0.23113362 -0.19433813 0.042289548 -0.07149566
0003e0 71 7d d1 3d fe f0 24 be 2e 54 2e 3e 24 a2 72 3e
       0.10229004 -0.16107556 0.170243 0.23694664
0003f0 31 6c 23 3e ad d7 71 3e 74 73 00 bd 60 c5 85 3c
       0.1595924 0.2361743 -0.031360105 0.016329467
