crop_fetch/assets/model.tflite (tflite, 44924 bytes, 6 tensors)

sequential/dense_1/BiasAdd/ReadVariableOp f4 [64]
0.0 -0.012767918 -0.06687172 -0.034656342 -0.006102904 -0.005138129 -0.028292412 0.18422545
-0.0088635245 0.0208016 -0.035469916 -0.011185785 -0.026077325 -0.047462795 0.09760939 0.0
0.05469087 0.12552445 0.0 -0.0033646605 0.096072346 -0.038448766 -0.011722572 0.0
0.11841448 -0.031833045 0.0 0.011672191 -0.008820547 0.106626175 -0.016349783 -0.013255508
-0.055436485 0.055983115 0.09896469 0.28302053 -0.012207112 0.0819335 -0.12905301 0.0
-0.026349507 -0.04895087 0.0 0.0 -0.02602321 0.0 0.032728158 -0.082913786
0.057835594 -0.079901285 0.02387583 -0.0151378075 -0.014056095 -0.021126218 0.0 0.02571193
-0.010699826 -0.061299145 -0.023721678 -0.039234012 -0.020434894 0.0 -0.008580357 0.0
00000000: 0000 0000 8830 51bc 0af4 88bd cff3 0dbd
00000010: dffa c7bb c05d a8bb 7dc5 e7bc 99a5 3c3e
00000020: 5138 11bc 1e68 aa3c e748 11bd 9544 37bc
00000030: 1da0 d5bc 5968 42bd 6fe7 c73d 0000 0000
00000040: 8903 603d 7b89 003e 0000 0000 a381 5cbb
00000050: 94c1 c43d 747c 1dbd 0810 40bc 0000 0000
00000060: 4a83 f23d 5e63 02bd 0000 0000 b83c 3f3c
00000070: 0e84 10bc d35e da3d fbef 85bc a12d 59bc
00000080: 5e11 63bd 8d4e 653d 00ae ca3d 11e8 903e
00000090: 5700 48bc c0cc a73d 7926 04be 0000 0000
000000a0: ecda d7bc b580 48bd 0000 0000 0000 0000
000000b0: a02e d5bc 0000 0000 f60d 063d b4ce a9bd
000000c0: 04e5 6c3d 49a3 a3bd 3f97 c33c 9104 78bc
000000d0: 894b 66bc e410 adbc 0000 0000 d3a1 d23c
000000e0: 534e 2fbc d014 7bbd f753 c2bc d8b3 20bd
000000f0: 1467 a7bc 0000 0000 a094 0cbc 0000 0000

sequential/dense_2/BiasAdd/ReadVariableOp f4 [22]
-0.026531456 -0.047604404 -0.070738 -0.03656179 -0.00923093 -0.0056499657 -0.093588606 -0.025597893
0.027207991 0.06595813 0.061796017 0.19151127 0.14150034 0.0962588 -0.04465393 -0.044692993
-0.017604096 -0.057273965 -0.018808655 0.04723965 -0.070598856 0.019109664
00000000: 7f58 d9bc d6fc 42bd 16df 90bd d1c1 15bd
00000010: 543d 17bc 5923 b9bb 62ab bfbd acb2 d1bc
00000020: 4be3 de3c 0e15 873d d21d 7d3d 881b 443e
00000030: 77e5 103e 5523 c53d 0ae7 36bd 0010 37bd
00000040: 7736 90bc 1b98 6abd 9c14 9abc 5d7e 413d
00000050: 2296 90bd df8b 9c3c

sequential/dense/BiasAdd/ReadVariableOp f4 [128]
-0.04249954 -0.110938065 0.107179336 0.12979452 -0.1078156 -0.16927895 0.01378693 0.018909005
-0.04487098 0.0599073 -0.06949938 -0.0073245177 0.011150123 -0.09815481 0.14436156 0.030601565
-0.08962752 -0.0197824 0.0 -0.052553017 0.0 -0.03677647 0.013063802 0.0
0.0648322 0.0 -0.009104365 0.019031478 0.02754175 -0.018385943 0.06349481 -0.056889504
-0.14326791 0.0 0.03490386 0.06793348 0.11363252 0.040150166 -0.052407745 0.015602298
-0.0054537933 0.046210546 0.012298097 -0.06022712 0.0 0.0 0.13638015 -0.033750184
-0.047566887 0.114036635 0.0 -0.0497927 0.03933607 0.030975135 0.1291076 0.053322084
0.091432236 -0.008848762 0.0 -0.09136321 0.17525794 -0.006979353 -0.0322428 0.0036845312
0.017452754 -0.024242595 0.0 -0.09971486 0.0 0.18844669 0.09976881 0.0
-0.00820992 0.0 0.13138832 -0.088838086 -0.021510808 0.15747899 0.012504351 -0.016814593
0.11332735 0.0 -0.06887281 0.0036399898 -0.028638605 0.13845527 0.011648741 0.014140566
0.02519323 -0.016229251 0.027742613 0.0058082296 0.15282378 0.24594258 -0.030046297 -0.015940884
0.03221022 0.0 0.17095616 0.0 -0.069890864 0.0059086424 0.0 -0.15859418
0.006816998 0.011876329 0.027182056 -0.06255462 0.055204563 -0.0028551703 -0.089365266 -0.008052805
-0.022323757 -0.04774552 -0.042561777 0.0 0.006715688 -0.11519498 0.0 0.028579978
0.14623883 0.0 -0.007692837 0.0 0.013925739 -0.004360858 0.0 -0.22897573
00000000: ff13 2ebd 7f33 e3bd d780 db3d dbe8 043e
00000010: 6dce dcbd 7657 2dbe 93e2 613c 0fe7 9a3c
00000020: a2ca 37bd 5b61 753d b155 8ebd 8202 f0bb
00000030: 01af 363c 6405 c9bd 84d3 133e 22b0 fa3c
00000040: a28e b7bd b30e a2bc 0000 0000 d541 57bd
00000050: 0000 0000 eca2 16bd 8f09 563c 0000 0000
00000060: bfc6 843d 0000 0000 792a 15bc e7e7 9b3c
00000070: 3c9f e13c 1e9e 96bc 9109 823d f804 69bd
00000080: d3b4 12be 0000 0000 5af7 0e3d b520 8b3d
00000090: 2bb8 e83d 8074 243d 81a9 56bd c8a0 7f3c
000000a0: bcb5 b2bb 4547 3d3d f57d 493c b6b0 76bd
000000b0: 0000 0000 0000 0000 3da7 0b3e a23d 0abd
000000c0: 7fd5 42bd 0a8c e93d 0000 0000 6ef3 4bbd
000000d0: dc1e 213d 91bf fd3c c834 043e 4268 5a3d
000000e0: d340 bb3d 66fa 10bc 0000 0000 a21c bbbd
000000f0: d176 333e 0eb3 e4bb 0711 04bd 2d78 713b
00000100: 14f9 8e3c 6898 c6bc 0000 0000 4e37 ccbd
00000110: 0000 0000 2bf8 403e 9753 cc3d 0000 0000
00000120: e682 06bc 0000 0000 a98a 063e bef0 b5bd
00000130: 6f37 b0bc 2c42 213e 0ddf 4c3c c2be 89bc
00000140: 2b18 e83d 0000 0000 300d 8dbd e58c 6e3b
00000150: 829b eabc 38c7 0d3e 5cda 3e3c d5ad 673c
00000160: 0862 ce3c 35f3 84bc 7a44 e33c f652 be3b
00000170: d67d 1c3e 5fd8 7b3e a723 f6bc 7596 82bc
00000180: ddee 033d 0000 0000 220f 2f3e 0000 0000
00000190: f122 8fbd 499d c13b 0000 0000 8366 22be
000001a0: 2061 df3b ef94 423c e7ac de3c a31c 80bd
000001b0: 2e1e 623d cf1d 3bbb 2305 b7bd eaef 03bc
000001c0: 50e0 b6bc ce90 43bd 4255 2ebd 0000 0000
000001d0: 460f dc3b 58eb ebbd 0000 0000 8f20 ea3c
000001e0: a2bf 153e 0000 0000 3214 fcbb 0000 0000
000001f0: c828 643c 87e5 8ebb 0000 0000 9d78 6abe

sequential/dense/MatMul f4 [128, 7]
-0.17778099 -0.062305562 0.0008917424 -0.16884269 0.21786577 0.06951908 0.019842077 -0.12307186
0.18627807 0.016284788 -0.24687667 -0.058520846 -0.13587315 0.09665078 -0.11337793 -0.017487742
-0.18288854 0.20799921 0.047277253 0.04477428 0.07288105 0.0009270474 -0.006738946 -0.19336678
0.24391085 0.16748026 0.34430543 -0.097608246 0.095870085 0.023079555 0.083906 -0.048349295
0.049219575 -0.025942123 0.1592114 0.12301731 -0.15668543 -0.2395969 0.101368144 0.16350418
-0.35874325 0.06651072 0.10647149 -0.12844196 0.13168345 -0.027663073 -0.12286514 -0.15376332
0.15423633 -0.045230422 0.03171537 0.1258625 -0.121332005 0.011192165 0.046259977 -0.2707346
0.10934493 -0.1768456 -0.0172009 -0.0912391 0.067534484 -0.12767541 0.08085616 -0.06414202
-0.0011274897 0.06447846 -0.08157695 0.04323184 0.18553269 0.06096105 -0.12458331 0.0042531705
-0.23453484 -0.1308833 -0.03404442 -0.19333968 0.17799501 -0.18853605 -0.1007037 0.16112733
-0.11000104 -0.020917833 0.06911981 -0.08289292 0.18371871 -0.08332585 -0.06635814 -0.096346706
0.11675876 -0.014593235 -0.03074004 0.18569693 0.16725612 0.0031407552 -0.19646883 -0.042658333
-0.15573062 -0.010058119 0.23337741 0.20375815 0.035176296 -0.16297087 -0.17454226 0.32289
-0.13992028 0.17768309 -0.09711177 0.097796805 0.2372805 -0.074427575 -0.0657314 -0.19099881
0.12916288 0.11925189 -0.035110377 -0.08408297 0.07249949 -0.15832232 0.043082606 -0.1893277
-0.05513986 -0.028720051 -0.20168833 0.13997568 0.092766576 -0.08736928 0.025688544 -0.09219349
0.106221154 0.014416292 -0.19940428 0.011095569 -0.038136393 -0.05895839 -0.024477217 -0.12791689
-0.106257014 0.1540228 -0.15542433 0.05095762 -0.11018485 -0.20405532 -0.025749654 0.13163613
-0.13420089 0.0613264 0.023210526 0.025039183 0.17344481 -0.25378782 0.06435527 -0.0152106965
-0.12464286 0.00086211006 0.054797307 0.14454964 -0.25361472 0.2982385 0.13925457 -0.071363226
-0.13108851 -0.15348144 -0.20358205 0.065118685 -0.18130551 -0.12158949 0.2056626 0.05174713
-0.044923466 0.017179525 0.11922684 0.10076992 -0.012049222 0.12721013 -0.037129037 -0.039398447
-0.015848547 -0.20209701 -0.10707714 0.05796556 -0.12005872 -0.21003672 -0.06637336 -0.14991379
-0.06618176 -0.15593413 0.19623609 -0.036988348 -0.1406145 -0.047167115 -0.07201587 0.15630384
0.20103854 -0.014850418 -0.07816035 -0.21972515 -0.13091822 -0.16823122 0.16037361 -0.19081028
0.14954333 0.108683206 -0.060363766 0.13474795 0.0018113983 0.19480202 0.10920002 -0.14783387
-0.13546832 -0.28906584 0.103047885 0.18281671 0.11357013 0.13093957 0.054078985 -0.08374372
-0.20685847 0.062089935 0.10408219 -0.08605199 0.09646212 0.034852833 0.06867014 -0.00034595968
0.13825998 0.16567658 -0.05586128 -0.19753064 0.2389059 -0.05752998 -0.22854713 -0.09167277
-0.17561236 0.032811016 -0.19163522 0.029995173 -0.17248137 -0.1981197 -0.050563876 -0.116244294
-0.056193575 0.16335116 0.02673637 -0.15407121 0.091215715 -0.09045968 -0.0062475577 -0.09202639
-0.23278616 0.18213956 0.12799546 0.032570858 -0.17064 0.09097124 0.06668861 0.072331615
00000000: 380c 36be 1e34 7fbd d2c3 693a 19e5 2cbe
00000010: 3418 5f3e 0560 8e3d da8b a23c 190d fcbd
00000020: aebf 3e3e ad67 853c 3dcd 7cbe 8eb3 6fbd
00000030: 5522 0bbe d8f0 c53d b032 e8bd 7442 8fbc
00000040: 2247 3bbe bffd 543e cba5 413d 3c65 373d
00000050: a942 953d 1905 733a 60d2 dcbb f101 46be
00000060: c4c3 793e f27f 2b3e cd48 b03e d5e6 c7bd
00000070: 8957 c43d 5611 bd3c e9d6 ab3d e909 46bd
00000080: 779a 493d 9384 d4bc 5008 233e 80f0 fb3d
00000090: 2572 20be e458 75be 1a9a cf3d a46d 273e
000000a0: 32ad b7be c636 883d b90d da3d 4a86 03be
000000b0: 07d8 063e ab9d e2bc b8a0 fbbd 2274 1dbe
000000c0: 21f0 1d3e 8943 39bd fae7 013d 19e2 003e
000000d0: ea7c f8bd 585f 373c 1a7b 3d3d ba9d 8abe
000000e0: 3cf0 df3d 0317 35be e7e8 8cbc 91db babd
000000f0: 854f 8a3d 58bd 02be ea97 a53d e45c 83bd
00000100: 47c8 93ba 480d 843d d111 a7bd df13 313d
00000110: 48fc 3d3e 4bb2 793d 8925 ffbd 2e5e 8b3b
00000120: e729 70be 4606 06be 2972 0bbd d6fa 45be
00000130: 5344 363e 980f 41be be3d cebd 90fe 243e
00000140: 3a48 e1bd e05b abbc b08e 8d3d c3c3 a9bd
00000150: c220 3c3e bea6 aabd c7e6 87bd 6c51 c5bd
00000160: 371f ef3d 7718 6fbc 89d2 fbbc 5627 3e3e
00000170: 3045 2b3e 21d5 4d3b 202f 49be 81ba 2ebd
00000180: d977 1fbe cfca 24bc 7dfa 6e3e faa5 503e
00000190: 0515 103d d6e1 26be 35bb 32be d751 a53e
000001a0: 4347 0fbe 8ef2 353e 89e2 c6bd b149 c83d
000001b0: a9f9 723e 7c6d 98bd 2f9e 86bd 3195 43be
000001c0: 4643 043e 563a f43d e6cf 0fbd b133 acbd
000001d0: 9d7a 943d 3f1f 22be 6377 303d 1fdf 41be
000001e0: 55da 61bd 5046 ebbc 6387 4ebe c955 0f3e
000001f0: 67fc bd3d aaee b2bd c870 d23c f1cf bcbd
00000200: 7a8a d93d 5032 6c3c a330 4cbe 30ca 353c
00000210: e834 1cbd 5a7e 71bd 7284 c8bc a5fc 02be
00000220: 479d d9bd 27b8 1d3e 8e27 1fbe f0b8 503d
00000230: 98a8 e1bd e1f3 50be f0f0 d2bc 9fcb 063e
00000240: f56b 09be 6431 7b3d 0024 be3c f91e cd3c
00000250: 849b 313e 7af0 81be b2cc 833d 4936 79bc
00000260: c144 ffbd 3aff 613a 2473 603d d204 143e
00000270: cad9 81be b7b2 983e c098 0e3e e226 92bd
00000280: 113c 06be 3d2a 1dbe d077 50be f25c 853d
00000290: 27a8 39be e903 f9bd 3799 523e ccf4 533d
000002a0: ab01 38bd 13bc 8c3c 342d f43d 7660 ce3d
000002b0: 1a6a 45bc 5f43 023e 9e14 18bd 4460 21bd
000002c0: d0d4 81bc 85f2 4ebe 424b dbbd 4c6d 6d3d
000002d0: 59e1 f5bd de13 57be c2ee 87bd 0083 19be
000002e0: 4d8a 87bd 32ad 1fbe 1df2 483e 1881 17bd
000002f0: 3ffd 0fbe 4e32 41bd 0e7d 93bd 1d0e 203e
00000300: 0cdd 4d3e 2b4f 73bc 8912 a0bd a1ff 60be
00000310: 6d0f 06be ce44 2cbe fb38 243e c563 43be
00000320: e321 193e 4d95 de3d ff3f 77bd 5efb 093e
00000330: 716c ed3a 2e7a 473e 43a4 df3d c361 17be
00000340: 35b8 0abe 7000 94be c50a d33d 4e34 3b3e
00000350: 7597 e83d 0615 063e ed81 5d3d d481 abbd
00000360: b5d2 53be 0452 7e3d 0b29 d53d 073c b0bd
00000370: ef8d c53d d8c1 0e3d eea2 8c3d ec61 b5b9
00000380: 0694 0d3e 1fa7 293e ccce 64bd 7945 4abe
00000390: c0a3 743e 8ea4 6bbd 4208 6abe efbe bbbd
000003a0: bad3 33be d864 063d 063c 44be 70b8 f53c
000003b0: f59e 30be e4df 4abe 111c 4fbd 7d11 eebd
000003c0: 3c2b 66bd 8745 273e 3b06 db3c d8c4 1dbe
000003d0: 4ecf ba3d ed42 b9bd 50b8 ccbb 5578 bcbd
000003e0: 7f5f 6ebe cb82 3a3e 3e11 033e 0569 053d
000003f0: 41bc 2ebe 214f ba3d 0a94 883d 9922 943d

sequential/dense_1/MatMul f4 [64, 128]
-0.10993242 0.09464683 -0.15976602 -0.16296811 -0.13845564 0.020444423 -0.03449619 -0.0713917
-0.13281955 -0.16678476 -0.10750995 0.10559656 0.15936773 0.17656578 0.0446022 -0.16659936
-0.1646821 -0.12885012 -0.02350694 0.010355771 -0.16280733 -0.04894513 0.013781175 -0.1428089
-0.10106283 0.09733401 0.08814676 0.08233662 -0.07188491 -0.0055425614 -0.004637167 -0.1722768
-0.11464937 -0.090961665 -0.018809631 0.12176718 0.160271 0.1010692 -0.10376963 -0.14619844
-0.095139846 0.015221626 -0.12919581 -0.10389493 -0.12133917 -0.081205636 0.004329115 0.11186515
-0.14568639 0.07823576 -0.0010475665 0.04362312 -0.108056255 -0.1290475 0.10550843 0.030288488
0.07372664 0.052191406 -0.15007932 0.07159464 0.11880268 -0.113821186 -0.07628335 -0.004641965
-0.071134776 -0.08388921 -0.115718514 -0.056179725 -0.08508778 -0.092758596 0.046824813 -0.1470863
0.065484196 0.00055393577 -0.14517958 0.14965154 -0.13312677 0.13825162 -0.045644745 0.053529277
0.15652783 -0.11860473 0.06738627 0.10790335 -0.03223303 -0.15630943 0.047214255 -0.00648202
-0.09309076 -0.16314569 -0.015377998 0.14397393 -0.11576576 0.00010022521 -0.14998108 0.11365576
0.16337554 -0.1229252 0.09632157 -0.13209568 0.07132658 0.075141415 0.103008404 -0.010314137
0.02301605 -0.11358769 0.01024586 -0.1540155 0.09214775 -0.07119028 0.15075739 -0.088209264
-0.09431175 -0.10889784 0.07655205 -0.060225107 -0.121215895 -0.14286521 -0.0891107 -0.08417134
0.14546163 0.025992513 -0.03709352 -0.06280955 0.15004037 0.121865556 -0.05372332 -0.018517688
-0.14820215 -0.09454301 -0.005291305 -0.1811371 -0.08255916 0.028762897 -0.050043814 0.113567874
0.06306763 0.09311471 -0.079783686 -0.0055859685 -0.119936824 -0.13793725 0.10217638 0.08358373
0.13150024 -0.15639612 -0.1442931 -0.15926787 0.09367503 0.018023591 -0.1836472 0.039426655
-0.017833145 -0.108864084 0.003430158 -0.03666009 -1.6644597e-05 0.15211153 0.14925626 0.13293701
0.021747323 0.08421324 0.079342216 0.13640727 -0.025557611 -0.14573921 -0.1337628 -0.11522253
0.0382891 -0.08375831 0.0740866 -0.14201103 0.06854856 0.08497311 0.15314977 -0.16751662
-0.18218122 -0.05159945 -0.010262385 -0.1739649 0.02240049 0.04603524 0.063087426 0.16782032
0.14431553 -0.011864262 0.035020664 -0.16294499 -0.04444913 -0.1547687 0.11799368 0.14085971
-0.011585545 -0.16528961 0.07749848 0.04427528 -0.1039289 0.15823503 0.058124546 0.024084315
0.12075615 0.06511423 -0.17064296 0.060835626 0.0046794033 0.13766754 -0.05513031 -0.09594302
0.079943486 -0.12298332 -0.14414369 -0.039866194 -0.17551553 0.004448114 -0.15989801 -0.077308275
0.08459822 -0.14209865 0.01345167 -0.06927142 -0.114763916 -0.06763152 -0.18581231 0.13236092
0.15483257 -0.049820483 -0.022470847 0.043154195 -0.07914866 -0.037865497 -0.1237753 -0.0058611487
-0.1195902 -0.112562925 0.038664088 -0.15452312 -0.009141808 -0.10802423 -0.06211397 0.13980682
0.017686674 -0.14648555 0.01677714 -0.09459228 -0.0155107975 -0.167804 0.16909017 0.055712327
-0.13303429 -0.11975433 0.11801167 -0.13885085 -0.08237196 -0.14546585 -0.14312105 0.042320244
00000000: 4024 e1bd 32d6 c13d b499 23be 1de1 26be
00000010: 51c7 0dbe 107b a73c e04b 0dbd d035 92bd
00000020: d901 08be a0c9 2abe 2d2e dcbd 0243 d83d
00000030: 4b31 233e a9cd 343e ccb0 363d 0699 2abe
00000040: 6da2 28be 49f1 03be a091 c0bc 40ab 293c
00000050: f7b6 26be b07a 48bd 70ca 613c 7f3c 12be
00000060: 07fa cebd 0e57 c73d 4a86 b43d 1aa0 a83d
00000070: 6538 93bd 609e b5bb 60f3 97bb 5469 30be
00000080: 4acd eabd 1c4a babd a816 9abc 1261 f93d
00000090: 151e 243e 5efd ce3d 2c85 d4bd 0bb5 15be
000000a0: aed8 c2bd 2064 793c e84b 04be ddc6 d4bd
000000b0: ac80 f8bd 244f a6bd 40db 8d3b 8e19 e53d
000000c0: d02e 15be 123a a03d 804e 89ba 28ae 323d
000000d0: 994c ddbd 0725 04be ce14 d83d 901f f83c
000000e0: fefd 963d a8c6 553d 65ae 19be 36a0 923d
000000f0: d24e f33d 151b e9bd 723a 9cbd a01b 98bb
00000100: 1caf 91bd 1bce abbd d4fd ecbd b61c 66bd
00000110: 8142 aebd 38f8 bdbd 60cb 3f3d cb9d 16be
00000120: 941c 863d 0036 113a f5a9 14be 413e 193e
00000130: 6252 08be d591 0d3e fcf5 3abd 8441 5b3d
00000140: d548 203e 09e7 f2bd d001 8a3d 6efc dc3d
00000150: c806 04bd 940f 20be bc63 413d 2067 d4bb
00000160: 5ea6 bebd aa0f 27be 00f4 7bbc e76d 133e
00000170: 9916 edbd 0030 d238 a494 19be 5ac4 e83d
00000180: eb4b 273e 35c0 fbbd 3e44 c53d 1744 07be
00000190: ac13 923d bee3 993d 12f6 d23d a0fc 28bc
000001a0: 288c bc3c aaa0 e8bd 40de 273c 3db6 1dbe
000001b0: f6b7 bc3d 36cc 91bd 2560 1a3e 0fa7 b4bd
000001c0: 8526 c1bd d505 dfbd 52c7 9c3d 9aae 76bd
000001d0: 0a40 f8bd 424b 12be ac7f b6bd 0662 acbd
000001e0: e5f3 143e 40ee d43c 60ef 17bd 4ba2 80bd
000001f0: 2fa4 193e a694 f93d fc0c 5cbd 68b2 97bc
00000200: 4ec2 17be c49f c1bd af62 adbb 017c 39be
00000210: c714 a9bd 2ba0 eb3c befa 4cbd 4696 e83d
00000220: 9a29 813d edb2 be3d a165 a3bd 800a b7bb
00000230: 70a1 f5bd 6c3f 0dbe da41 d13d f22d ab3d
00000240: 00a8 063e 4e26 20be 92c1 13be 1e17 23be
00000250: b2d8 bf3d 36a6 933c 030e 3cbe d87d 213d
00000260: d116 92bc 22f4 debd 80cc 603b e428 16bd
00000270: 00a0 8bb7 20c3 1b3e a2d6 183e a420 083e
00000280: 7127 b23c fe77 ac3d 2c7e a23d 59ae 0b3e
00000290: 325e d1bc a93c 15be 1ef9 08be caf9 ebbd
000002a0: 08d5 1c3d 7a89 abbd b7ba 973d 576b 11be
000002b0: 3063 8c3d 6206 ae3d 4bd3 1c3e 7a89 2bbe
000002c0: b78d 3abe f259 53bd 9023 28bc db23 32be
000002d0: 3b81 b73c 738f 3c3d fb33 813d 17d9 2b3e
000002e0: 73c7 133e 5262 42bc d471 0f3d 0ddb 26be
000002f0: 4a10 36bd b07b 1ebe aca6 f13d 873d 103e
00000300: 4cd1 3dbc ae41 29be 86b7 9e3d ff59 353d
00000310: add8 d4bd 5d08 223e 0114 6e3d 784c c53c
00000320: 004f f73d 9c5a 853d 07bd 2ebe c72e 793d
00000330: ae55 993b b8f8 0c3e 52d0 61bd c67d c4bd
00000340: 69b9 a33d aede fbbd 679a 13be bc4a 23bd
00000350: 58ba 33be 7cc1 913b 4ebc 23be cd53 9ebd
00000360: d541 ad3d 4f82 11be 6564 5c3c 2dde 8dbd
00000370: 5809 ebbd 6582 8abd 9545 3ebe 9f89 073e
00000380: 6e8c 1e3e 9010 4cbd c814 b8bc 74c2 303d
00000390: b118 a2bd da18 1bbd e87d fdbd e10e c0bb
000003a0: b5eb f4bd 6487 e6bd 3c5e 1e3d 4f3b 1ebe
000003b0: 86c7 15bc cf3b ddbd 386b 7ebd 8529 0f3e
000003c0: a5e3 903c 4f00 16be 3670 893c 99b9 c1bd
000003d0: 0021 7ebc d0d4 2bbe f925 2d3e 9c32 643d
000003e0: 243a 08be c241 f5bd 1ab0 f13d eb2e 0ebe
000003f0: a1b2 a8bd 00f5 14be 538e 12be fe57 2d3d

sequential/dense_2/MatMul f4 [22, 64]
-0.22458252 0.20485367 -0.062193997 0.045487273 0.091568746 0.13279836 -0.029846583 -0.5420718
0.20544255 0.010816451 0.055597637 0.18475054 0.2078241 0.004434951 -0.1880739 -0.018303424
-0.2682897 0.058455236 -0.19310895 0.14366719 0.19811514 -0.21692134 -0.08245997 0.113683045
0.11982825 -0.24125355 -0.026355445 -0.08219266 -0.10652286 0.18727444 -0.048527732 -0.10345615
-0.0764804 0.17280322 -0.12644976 0.15743612 -0.2496955 -0.1762543 0.03546636 -0.21767792
0.009596473 -0.24398765 -0.1347542 -0.19189101 -0.051808998 -0.13681467 0.12609367 -0.22685228
0.031841997 -0.21048698 -0.16560782 -0.23704825 0.091134064 -0.064866535 -0.010912001 -0.1787294
0.038573146 -0.293926 0.06301385 -0.27378178 0.25033054 0.25983354 0.13646767 -0.0090581775
-0.19008514 0.13486889 -0.2650678 0.17630416 -0.013882846 -0.13290837 0.0042193434 -0.42610532
0.11603228 -0.04055509 -0.11592977 0.034622878 0.23908268 0.3543624 0.19757259 -0.24528113
-0.26665738 0.27236876 -0.13986102 -0.19453615 -0.038953565 0.21496913 -0.26188102 -0.16308567
-0.17615892 0.109882824 0.088933825 0.24345897 -0.17376305 0.028738307 0.0035620632 0.0351745
-0.19564192 -0.117701754 -0.45672867 -0.2429926 0.16033345 -0.11017365 0.07129358 0.055057704
-0.10251666 0.18835567 0.0707221 0.14235884 0.106867574 0.05307272 -0.1919814 -0.11989435
-0.110868126 0.055167172 0.0069209263 0.16913785 0.20191008 0.07256052 0.23372173 0.011366622
-0.09651974 -0.089986384 -0.02679913 0.026493171 -0.23787236 -0.10705382 0.030593734 0.038514286
0.09715614 -0.24736956 -0.18879591 0.12588164 0.19398546 -0.39688307 0.17887436 -0.15275477
-0.3183268 -0.08975567 -0.095441334 -0.19303119 0.18235604 0.049192343 -0.23634325 0.21705174
-0.032217734 -0.3670473 -0.20554155 -0.09746148 -0.34892797 -0.30119807 0.108750455 0.22015521
0.026384318 -0.2591613 0.04056853 0.13104813 0.15867224 -0.16745736 -0.28774455 -0.55765057
0.15372187 0.010301814 -0.05295832 0.064276785 -0.25401115 -0.09034547 -0.0007182332 -0.14323117
-0.17256494 0.18562183 0.068749666 -0.1485152 -0.22126617 -0.005555898 -0.1010131 0.21233833
-0.24692848 0.15470985 0.25721103 0.16230693 -0.022424154 0.2277422 0.046364397 -0.17234936
0.0028036013 -0.027765075 0.20974727 0.11766179 -0.18375124 0.09688017 -0.15791142 0.031513393
-0.13042872 0.19002421 -0.1835392 -0.06598468 -0.03882794 -0.044157308 -0.0876211 0.10746833
0.13964702 0.022144718 0.2267758 -0.062606744 0.103466175 0.3716283 -0.2608074 -0.100383654
-0.031448923 0.3391547 -0.15438437 0.007815811 -0.084855705 -0.0017527789 0.03274414 0.22475576
0.07396798 -0.15848339 0.09101188 -0.02199136 0.13443618 0.06390953 0.10394825 -0.09512058
-0.09474563 0.17719452 -0.054649435 0.17821272 0.15535887 -0.30425894 -0.070520334 -0.07019639
0.094611 -0.17181344 -0.2129169 -0.10168363 -0.13985552 -0.064338416 -0.10672712 -0.05522729
-0.05026458 0.090284966 0.18613239 0.15672992 -0.03102233 -0.009329163 -0.13269411 0.20913823
-0.17926687 -0.10329472 0.18441252 -0.329118 -0.12503915 -0.21838462 0.1845558 -0.22276855
00000000: f6f8 65be 29c5 513e 22bf 7ebd dd50 3a3d
00000010: 6588 bb3d 4bfc 073e d280 f4bc 38c5 0abf
00000020: 885f 523e 7c37 313c 59ba 633d 3f2f 3d3e
00000030: d7cf 543e 1153 913b 7296 40be 10f1 95bc
00000040: 445d 89be c26e 6f3d 5abe 45be 7e1d 133e
00000050: b2de 4a3e a120 5ebe c6e0 a8bd a8d2 e83d
00000060: 8368 f53d 2c0b 77be 60e7 d7bc a054 a8bd
00000070: a828 dabd dfc4 3f3e 04c5 46bd d1e0 d3bd
00000080: c2a1 9cbd 54f3 303e 0c7c 01be ef36 213e
00000090: 2db0 7fbe 027c 34be 2d45 113d f6e6 5ebe
000000a0: 863a 1d3c e6d7 79be 01fd 09be 147f 44be
000000b0: ac35 54bd 2519 0cbe b31e 013e f74b 68be
000000c0: c16c 023d e689 57be 1995 29be c7bc 72be
000000d0: 7fa4 ba3d bfd8 84bd 40c8 32bc d704 37be
000000e0: e0fe 1d3d 787d 96be 680d 813d 202d 8cbe
000000f0: 532b 803e e708 853e 2ebe 0b3e c068 14bc
00000100: aea5 42be 121b 0a3e f7b6 87be 1489 343e
00000110: e074 63bc 2219 08be 6b42 8a3b 7a2a dabe
00000120: 55a2 ed3d 181d 26bd 966c edbd b8d0 0d3d
00000130: 17d2 743e fd6e b53e 7850 4a3e fa2a 7bbe
00000140: 5187 88be eb73 8b3e ba37 0fbe 7c34 47be
00000150: c68d 1fbd de20 5c3e 4515 86be eeff 26be
00000160: 0163 34be 3f0a e13d f022 b63d 4f4d 793e
00000170: f1ee 31be 996c eb3c 8171 693b 2313 103d
00000180: 5b56 48be 9e0d f1bd 57d8 e9be 0dd3 78be
00000190: 742e 243e b9a2 e1bd 5e02 923d 3084 613d
000001a0: 41f4 d1bd 4fe0 403e c0d6 903d 84c6 113e
000001b0: 63dd da3d c862 593d c696 44be 2b8b f5bd
000001c0: d40e e3bd f9f6 613d f0c8 e23b 7932 2d3e
000001d0: 84c1 4e3e 9c9a 943d c054 6f3e 113b 3a3c
000001e0: 24ac c5bd c84a b8bd d989 dbbc 3508 d93c
000001f0: d094 73be 083f dbbd b69f fa3c 28c1 1d3d
00000200: ccf9 c63d 724e 7dbe b753 41be 1ee7 003e
00000210: 20a4 463e 4234 cbbe d72a 373e bf6b 1cbe
00000220: bbfb a2be d2d1 b7bd bf76 c3bd f8a9 45be
00000230: 8bbb 3a3e e97d 493d f703 72be d042 5e3e
00000240: bef6 03bd a0ed bbbe 7c79 52be e299 c7bd
00000250: b0a6 b2be a236 9abe 8fb8 de3d 5e70 613e
00000260: ed23 d83c cab0 84be 302b 263d 7b31 063e
00000270: fa7a 223e f179 2bbe 4153 93be 30c2 0ebf
00000280: 4469 1d3e f1c8 283c d3ea 58bd 8ca3 833d
00000290: c00d 82be 0c07 b9bd d047 3cba 31ab 12be
000002a0: ddb4 30be a613 3e3e a0cc 8c3d 5e14 18be
000002b0: 9993 62be 400e b6bb f5df cebd 386f 593e
000002c0: d2da 7cbe 426c 1e3e 2ab1 833e ca33 263e
000002d0: dcb2 b7bc 4035 693e 98e8 3d3d 5a7c 30be
000002e0: a0bc 373b 9573 e3bc fdc7 563e aaf8 f03d
000002f0: 4929 3cbe 1c69 c63d 88b3 21be 3014 013d
00000300: 1b8f 05be b595 423e b3f1 3bbe fa22 87bd
00000310: 0c0a 1fbd 4bde 34bd b172 b3bd 5b18 dc3d
00000320: a1ff 0e3e d768 b53c ea37 683e f737 80bd
00000330: 13e6 d33d 1146 be3e 8c88 85be f295 cdbd
00000340: 96d0 00bd afa5 ad3e f016 1ebe e30d 003c
00000350: d4c8 adbd 80bd e5ba b81e 063d 6026 663e
00000360: 867c 973d 7849 22be 7064 ba3d 3927 b4bc
00000370: a3a9 093e 00e3 823d d2e2 d43d 94ce c2bd
00000380: ff09 c2bd 7b72 353e 16d8 5fbd 657d 363e
00000390: 6516 1f3e d4c7 9bbe f76c 90bd 20c3 8fbd
000003a0: 69c3 c13d ddef 2fbe e306 5abe 823f d0bd
000003b0: 4936 0fbe dcc3 83bd c093 dabd 0336 62bd
000003c0: 3be2 4dbd 53e7 b83d 7d99 3e3e cf7d 203e
000003d0: 8b22 febc 58d9 18bc f7e0 07be 5528 563e
000003e0: bc91 37be 2f8c d3bd a3d6 3c3e 2882 a8be
000003f0: 430a 00be 38a0 5fbe 32fc 3c3e 701d 64be
